ai_mlb_age_predictor.pt (torch, 8750 bytes, 10 tensors)

fc1.weight f4 [15, 10]
00000000: 808c f93d fb6f 17bd d175 4ebe 0405 fb3c
00000010: 4256 cf3e 29ab 94bd 811e c7bf 5222 633e
00000020: 9c96 c4bf 791c 7bbf 9471 82bd e0b9 3d3c
00000030: f2e6 83be f215 b9bd b5fe 9c3e 92d5 8abd
00000040: 6578 933e c2d5 fcbd 2c40 02be 0a0a c1bd
00000050: 63cf efbd 45c2 15bd 939b 993e 3890 bcbc
00000060: ae44 47bf 520a a33e f563 67bf 065f 433e
00000070: f89d b1be bd08 6abf b98d 45bd 2d4a afbe
00000080: 1e76 243f 9f4d 81be f4f0 063f d395 fb3e
00000090: d05d b43f 805a 9f3e a6ee 10bf 5936 e53e
000000a0: 5fbf 323d a2d9 803c 686d 6bbe 6b72 723e
000000b0: 225e 26bf b5d5 11be 732c 8dbe 7148 d33d
000000c0: 0139 ccbf 3273 e8bf 94cc 953e b8bb 3abd
000000d0: 1855 32be 99b4 533e ec47 bf3d 426a b0be
000000e0: 8038 76bf 6d72 61be 40e0 023d 44c2 e43e
000000f0: adfd f6bc 8cba 16bd 0f91 d83d 439d 793e
00000100: aa4c c43e 8a41 14bf 8381 053e e331 5d3d
00000110: eeed 1cbd c57b 2c3f 97ff 333e fbe2 983d
00000120: c87d 0fbe 857d 97be 575b 083f 926c c53e
00000130: 1ab0 74bf f438 37bf a2de afbf 0087 48bf
00000140: fc3c 8b3d afca 74bb a6b2 1f3f 8f68 98be
00000150: af9a 253f b451 12be 1cb7 b9be f9d0 14be
00000160: 43ae 86be 6587 a93e a566 8ebe 2a80 cd3d
00000170: 8498 0ebe 1c5b e93d 673a 823e fac2 883e
00000180: d50c 17be 0085 92be 7733 06c0 af80 04c0
00000190: d9d9 0f3e da45 5cbf 5ef4 4c3f 9760 12bf
000001a0: b706 f1be 7169 213d cb3f 86bf 86ec 7abf
000001b0: d2ef e9be 3fc1 42bf 3e4a 833e 88aa 32bd
000001c0: b7c3 493e 17b2 de3d 50c1 a13d df53 9cbe
000001d0: 65e9 8d3e 5e6b 81be a339 a7bf fd82 67bf
000001e0: 971d 18be 1dc0 583c e297 c5bd fc05 2d3e
000001f0: ad60 933e c4eb 81be 8836 05be 4d25 fa3d
00000200: 8b75 253f 97f9 7e3f 23f5 cc3e 3383 01bc
00000210: d119 a6be 3d3e fd3d 6fa4 163f d789 e7be
00000220: 1bc9 22bf 5d88 dfbe 4760 c6bf d1d1 2dbf
00000230: 211a 87bb 42ac a4be 7b3c 123d 1601 023e
00000240: 58fb 2b3b 3b97 8abe 2ab7 313e 7997 a3be
00000250: 8fc5 4a3e 6092 0dbd
0.121850014 -0.036972027 -0.20162131 0.03064204 0.40495497 -0.07259209 -1.5556184 0.22181061
-1.5358462 -0.9809032 -0.063693196 0.011579961 -0.25762135 -0.09037389 0.30663076 -0.067790166
0.2880279 -0.123454586 -0.12719792 -0.09425743 -0.11709478 -0.036562223 0.30001506 -0.023017988
-0.7783917 0.3184381 -0.903869 0.19079217 -0.34690833 -0.91419584 -0.04823086 -0.3423628
0.6424273 -0.25254533 0.52711415 0.49137744 1.4091129 0.31123734 -0.5661415 0.44768026
0.043639537 0.015728775 -0.22990954 0.2367646 -0.64987385 -0.14241679 -0.27572975 0.103165515
-1.5954896 -1.8160155 0.29257643 -0.04558918 -0.17415273 0.20674361 0.0933989 -0.34456068
-0.9617996 -0.22016306 0.031952143 0.44679463 -0.030150259 -0.036799 0.10574543 0.24376397
0.3833974 -0.57912505 0.13037686 0.054002654 -0.038312845 0.6737636 0.17577969 0.07465168
-0.14012825 -0.2958795 0.53264374 0.38559395 -0.9558121 -0.7157128 -1.3739817 -0.78330994
0.06798741 -0.0037352254 0.6238197 -0.29767272 0.64689153 -0.1428898 -0.36272514 -0.14532842
-0.26304826 0.3311111 -0.27812687 0.10034211 -0.13925368 0.11394331 0.25435182 0.26711255
-0.14750989 -0.28617096 -2.0968912 -2.0703542 0.14047946 -0.86044085 0.80060375 -0.57178634
-0.47075436 0.039407197 -1.0488218 -0.98017156 -0.4569078 -0.7607612 0.2564258 -0.043619663
0.19703566 0.10873812 0.078981996 -0.3053274 0.27717128 -0.25277227 -1.3064464 -0.9043425
-0.14855038 0.013229397 -0.0964811 0.16896814 0.28784695 -0.25375187 -0.13009083 0.12214146
0.6463248 0.99599594 0.40030774 -0.0079048155 -0.3244157 0.12365387 0.58844656 -0.4522235
-0.6358811 -0.43658724 -1.5498132 -0.6789828 -0.004122988 -0.32162672 0.03570221 0.12695727
0.0026242342 -0.27068505 0.17355028 -0.31951502 0.19801925 -0.034563422

fc1.bias f4 [15]
00000000: bbe0 c7bb c82d 89be 894b 433e e44f c53e
00000010: ca1c 04bf 8fa5 a93a 5ca5 013f 1b76 e83e
00000020: 19d6 09bf f7c0 ed3e 0c00 913e 01f4 91bf
00000030: ac97 553d ab7c d0bd 7961 b6be
-0.006099788 -0.2679274 0.19071783 0.38537514 -0.5160643 0.0012943017 0.50642943 0.45402607
-0.5384231 0.46436283 0.28320348 -1.1402589 0.0521466 -0.101800285 -0.3562124

fc2.weight f4 [16, 15]
00000000: efc3 653e 517c 1cbe 420d 123e 4f80 623e
00000010: f417 083e 0574 d2bd d69f c4bf 3fb9 4b3f
00000020: 1ced b63e 97c7 17bb a6a8 41be 07b5 52be
00000030: 7855 a73d 2a81 abbd 01e6 0bbe a964 833d
00000040: 787e ad3d 1036 1040 eb0e d23e 4230 243e
00000050: 508d 17bd bd0a efbf ed03 bd3c db8c 38be
00000060: a66a 0d3c 7674 543f 52fb 0bbe dbf7 20be
00000070: d99a 283e 21a5 113e 316f 85bd 8010 da3d
00000080: 45ca 5d3f 2033 4940 197e 82bc 6c4b 303c
00000090: 3ff4 28bf b2aa 4e3d cd3a 99bd 20c9 02be
000000a0: 1043 8d3f 2bc8 b13c f246 1cbe a4c3 183d
000000b0: c438 acbd 938a b1bf ee83 5d3e a690 fa3e
000000c0: 7429 3ebd 1c88 263d 843d 04c0 29dc 683e
000000d0: 1425 c13e d3f9 033e cff0 a4bd 8a05 d03e
000000e0: f056 b93e 57ee b0be 0a0c 8dbf ec66 4e3e
000000f0: d2d1 10be c2bd b8bd ce4b 623f 267f d93f
00000100: 1ee3 20bd f3e0 90be 130f 553f 4b8b afbe
00000110: 7192 b33a 3b76 bdbd 9286 aabb e8f6 793a
00000120: 3ec7 903f 6cc4 b1be e41d 10bd 0e42 3dbd
00000130: 5cdf 6bbe 2081 2f3f 7545 41be af57 093d
00000140: 27fa 07c0 fcbf edba f8d2 003d 985e 153e
00000150: 3430 de3e 8998 613f ea8e 3c3e 31e7 1cbd
00000160: 1147 dfbf dd08 40bd 05f1 c1bb 6c81 3a3e
00000170: 4520 8f3d 4419 0c3e 6baf 233d 1c8e b8be
00000180: 920b 953e 5f35 f53e 341c 61be 37c8 26bd
00000190: b9f1 bbbd d03f b4be cce1 cd3f 0aac a1be
000001a0: 00d4 f1bd 02e8 27bd 0afe f7bd 8dfc 273f
000001b0: 6005 053f d6e7 b3ba ba17 5b3b ddce cebf
000001c0: 0fde 1f3e 1845 f03e 5a69 19be e95d 8a3f
000001d0: 53b3 b83b eac0 303f 8c0c c73b 39c1 6b3e
000001e0: 840a e7bd 4dca 3fbe 064c 9ebe b948 bc3f
000001f0: 758a ce3d ce86 8abc cdb5 ce3e f1b7 bcbe
00000200: ff22 99be 8e81 42be aa4b 56be ad48 a0bb
00000210: 3ed0 ae3f 7410 c0bc 36be 6e3d 1fea 8abd
00000220: 6e70 3b3e 6f4a a53e d2e9 ed3f d231 753c
00000230: 1053 b8be 7e88 4e3f f813 a6be c2ef f9bd
00000240: 7621 18be d35c 7cbd 4918 63bb e220 083f
00000250: 2ecd eabe 10ef 033e 3452 61bc 24ea e7bd
00000260: 152d 693f 5107 ae3e f4ae 6b3c 69b8 343c
00000270: aaae a6bf 0af9 e43d 4b20 babd f9a6 0fbe
00000280: d6ac b83f 775a f93b 9577 d13e 23bf a0bb
00000290: dfbc 4bbe 2672 b83d dc09 e83d 46ea ab3e
000002a0: 49fd 793f 4af7 eebb 6694 86bd a4a3 15bf
000002b0: 9d87 213f 4079 1c3e 5ac1 08bc 6e73 9b3f
000002c0: d3c2 fd3d eb59 12be 9fae 23be c45a 21be
000002d0: d1ac 4cbd 0acc eabd 8744 cfbe 1fa4 ea3f
000002e0: 91ef 833a 6eb8 653b e93c 9bbe f44c e1bf
000002f0: f5e9 8cbe a136 94bd 7422 acbf 7781 423d
00000300: b839 7b3f f47f 83bc 69a9 fb3b bf6f cb3e
00000310: 321a 3c3e 5e56 993d 29a3 253e 8607 923d
00000320: eac4 213e e130 95be a5a0 5abd 61dd 24bd
00000330: 7129 593e 9195 b43e d6ef c9bd 8cae a43e
00000340: ed48 4e3d dd7b a7bc 2aa7 d4bd 0cf6 82be
00000350: e5fd e13f 8874 89bd 2ded cb3d f959 463d
00000360: e1bd bfbb cbb6 dcbe 19e2 bebe 6071 273e
00000370: b681 7e3d 47bb fc3d 3f56 a0bd 2c9c 253d
00000380: 6188 38bd 025a 593c 1adc 8fbd a95d 7b3e
00000390: 30dd d8bf e546 ef3c e724 64bc c80d ed3e
000003a0: 880b 3b3e 6058 04bf 43a8 f1bc d0a3 593f
000003b0: a52a 543e 166b 0ebf 049e 723d 8602 353e
0.22438024 -0.15281798 0.1426287 0.22119258 0.13290387 -0.10276035 -1.5361278 0.7957954
0.35727775 -0.0023159736 -0.1891199 -0.20576869 0.08170599 -0.083742455 -0.13661958 0.06415684
0.084713876 2.2532997 0.41027007 0.16034034 -0.037 -1.8675152 0.023073161 -0.18022482
0.008631384 0.82990205 -0.1367009 -0.1571955 0.1646532 0.14223148 -0.06515349 0.106476784
0.86636764 3.1437454 -0.015929269 0.0107601695 -0.6599769 0.050455756 -0.074819185 -0.12772036
1.1036091 0.021701893 -0.15261438 0.037295952 -0.08409265 -1.3870414 0.21632358 0.48938483
-0.04642625 0.040657148 -2.0662546 0.22740234 0.377236 0.12888269 -0.08053743 0.40629226
0.3619914 -0.3455684 -1.1019299 0.20156449 -0.1414254 -0.090205684 0.8839692 1.6991928
-0.039279096 -0.28296623 0.83226126 -0.3428596 0.0013700259 -0.09251066 -0.0052040303 0.0009535388
1.1310804 -0.3472017 -0.035184756 -0.046205573 -0.23034424 0.68556404 -0.18874152 0.033530887
-2.124643 -0.0018138881 0.031451195 0.14586866 0.4339615 0.88123375 0.18413892 -0.03830642
-1.7443563 -0.046883453 -0.0059186243 0.18213433 0.06988577 0.13681513 0.039962213 -0.3604592
0.2911039 0.4789228 -0.21983415 -0.040718284 -0.09176964 -0.35204935 1.6084533 -0.31576568
-0.11808014 -0.040992744 -0.12109001 0.65619737 0.51961327 -0.0013725709 0.003343089 -1.615688
0.15612052 0.46927714 -0.14981595 1.0809909 0.0056366115 0.69044363 0.0060744938 0.23022927
-0.112813026 -0.18729515 -0.30917376 1.4709693 0.10085002 -0.016909983 0.40373078 -0.36859086
-0.29909512 -0.18994734 -0.20927301 -0.004891476 1.36573 -0.023445345 0.058286868 -0.06782936
0.18304607 0.3228335 1.8586981 0.014965491 -0.36000872 0.8067702 -0.3243711 -0.12203933
-0.14856514 -0.06161196 -0.0034651926 0.53175175 -0.45859665 0.12884164 -0.013752509 -0.11323956
0.91084415 0.33989957 0.014384974 0.011030295 -1.3022053 0.11180313 -0.09088191 -0.14028539
1.4427745 0.007609661 0.40911546 -0.004905598 -0.19896267 0.09006147 0.113300055 0.33577174
0.9765211 -0.0072926627 -0.065712735 -0.5845282 0.63097554 0.15280628 -0.00834688 1.2144601
0.123906754 -0.14292113 -0.15984581 -0.1575728 -0.049969498 -0.114646986 -0.4048197 1.8331336
0.0010065903 0.0035052556 -0.30319908 -1.7601609 -0.27522245 -0.07236982 -1.3448014 0.04748675
0.98134947 -0.016052224 0.0076801074 0.39733693 0.18369368 0.07487176 0.16175522 0.07130341
0.15797773 -0.29138854 -0.05337586 -0.040250186 0.21207215 0.3527036 -0.09860198 0.3216442
0.050362516 -0.020444805 -0.103834465 -0.25578344 1.7655607 -0.0671168 0.09957347 0.04842565
-0.0058514928 -0.4310821 -0.37281874 0.16351843 0.06213542 0.12340408 -0.0782895 0.04043214
-0.045051936 0.013266088 -0.07024403 0.24547447 -1.6942501 0.02920861 -0.013924814 0.46299577
0.18266118 -0.5169735 -0.029499179 0.85015583 0.20719393 -0.5563215 0.059232727 0.17676744

fc2.bias f4 [16]
00000000: 8234 28bf 18d7 7fbe 9368 003e 15ff c73d
00000010: d2b2 413e 4c88 78b9 d19d 7e3f 747f af3e
00000020: d2ec 4c3e e931 353f e39b 413e 3e5d 223e
00000030: a01e c93e f27f cabe 050a 3abd a5ce 01bf
-0.6570512 -0.24984396 0.12539892 0.0976545 0.18915871 -0.00023701898 0.9945956 0.34276927
0.20012215 0.7077928 0.18907122 0.15855882 0.39281178 -0.3955074 -0.04541971 -0.5070594

fc3.weight f4 [12, 16]
00000000: 974b 9cbe 6f85 d8be d231 3bb9 3579 a5be
00000010: cd9c f43c 7a7d a9bf d8c4 b8bc 61d1 edbd
00000020: 2c2c d43d d453 d93c 0c39 1cbf d7b8 f0bd
00000030: 8178 983e a139 fbbd 4ee6 d2bc dbc6 e73d
00000040: dd4b 75bd 51b9 cd3c 27e9 a63d 36c7 02be
00000050: 5b8a 14bf 0174 86bc b10a 1bbf f6f9 013a
00000060: 75e4 e1be 242e 7bbf e175 3c3d 7fe4 98ba
00000070: a5fc a6be 7c42 4bbb 3aef 0cbd 5f12 023d
00000080: dea8 653e 1f0a d43d e09d ce3e e9ff b73e
00000090: 2f13 bd3e e130 653e 02e1 3dbd 61e6 083e
000000a0: 7239 763c 4e64 e83e f88b 5f3e 2346 5c3e
000000b0: 9e2b 24be 32e3 47bd ce86 823e 2bd7 0f3e
000000c0: b6ea f1bd 71c8 fdbd 6a04 27bf 021f 003d
000000d0: a098 c13e 260d ac3d e394 073e ecab 4b3c
000000e0: 5416 9f3e dfe5 b63e fbf1 11be 24dc 97bf
000000f0: d39c e23e 3634 a03d 0691 b83b e1fd 04be
00000100: dc60 7b3e 1fed b43d 423d f03e 1a31 903e
00000110: 67c3 113e 5df5 443d 13bb efbe fded d23b
00000120: 34bf 9fbc 5e59 043f 7402 2d3e 3115 a83e
00000130: c8e5 c23c 15d1 9dbd 1365 8a3e 1afe ab3e
00000140: 0a1d 243d c1ef fbbe 240e 1dbf df2e 2d3e
00000150: 36b0 6bbf 2913 c83c 2f9b 5fbd 7f9a 153d
00000160: 938a 2cbf cb38 52bf c999 d4be dce5 323d
00000170: 4590 93bf 9986 c9bd 173d 463c c515 45be
00000180: a39f b8be 608d e4be ce64 683d 7b5a 6bbf
00000190: 1daf 7e3d 669c dcbf 3a57 8c3d edb0 883c
000001a0: 06f4 1e3d f765 9d3d eee3 07bd f594 b5bb
000001b0: 310c 873c 1356 5fbe 96bc b6bf 7894 a3be
000001c0: 9beb 0abe da41 393d 155e 8ebf ed64 7cbf
000001d0: 3ecb 1bbe d9fd 54bb 946f acbb 62ac a7bf
000001e0: fdda 96bd 4c03 87be 293f 53bf d944 a2be
000001f0: e3aa 033e 4393 683d 8609 d13d 91b6 983d
00000200: d5b4 403e 7dad b33c 79d9 3abd 72ed 3dbe
00000210: 591e 273e cd12 9abe ac59 c03d 58ec b1bc
00000220: 91d0 4d3f 5b87 9b3e 353a 08bd 250a 8dbb
00000230: 76cd df3f 4184 dc3d f05e 8b3d 3d39 083e
00000240: b32f e13c fcc9 763d 30c1 85bd c580 4dbe
00000250: 3236 893d cbf8 813e 9dca 123f c6a7 f13d
00000260: 4a2a 283e b278 3c3e 0f6c bc3d 6545 31be
00000270: 6bd8 1b3f 2639 603d 4c8e a2bd 50dd e1be
00000280: e1d3 d93e ee1f 593b cfe5 033f 541e 033f
00000290: 315c 8b3e 9a4e 2a3e 42fa 933e f828 9d3e
000002a0: e958 a63e 30de c13e 8ef7 fe3e 3d75 203f
000002b0: 280c 013e a0c0 3d3e 7f1d a73b a4ec 133f
000002c0: 6403 bd3c c35a 853b 3a51 d2bc a787 663e
000002d0: e70c 3abf 6810 79bc c9c3 aa3e d8da 843d
000002e0: 6295 a3bf 6845 68bf 50c3 5ebd c2aa 29bd
000002f0: 3a8c 4cbf 8a08 203d ab43 39bd 2e63 93bc
-0.3052642 -0.42289302 -0.00017852269 -0.32319036 0.029859925 -1.3241417 -0.0225548 -0.116122015
0.103599876 0.02652923 -0.61024547 -0.117540054 0.29779437 -0.12266851 -0.025744583 0.113172255
-0.059886802 0.02511278 0.08149939 -0.12771305 -0.58023614 -0.016412737 -0.6056319 0.00049582066
-0.4411961 -0.9811728 0.046010856 -0.0011664777 -0.32614627 -0.003101497 -0.03440783 0.0317558
0.22427699 0.10353493 0.40354824 0.3593743 0.36928698 0.22381927 -0.046357162 0.13369133
0.0150283445 0.45389026 0.21830738 0.2151113 -0.16032264 -0.048800655 0.25493473 0.14046924
-0.11812346 -0.12391747 -0.6524111 0.03127957 0.37811756 0.08400945 0.1324039 0.012431126
0.31071723 0.35722253 -0.14252464 -1.1864057 0.44260272 0.078224584 0.0056325225 -0.12987472
0.24548668 0.0883429 0.46921736 0.28162462 0.14234696 0.04808556 -0.46822414 0.006437062
-0.019500352 0.51698864 0.16895467 0.32828668 0.023791209 -0.07705895 0.27030239 0.33592302
0.040066756 -0.49206355 -0.613497 0.16912411 -0.9206575 0.024423199 -0.054591354 0.036524292
-0.6739895 -0.8211791 -0.4152358 0.043676242 -1.1528403 -0.098401256 0.012099526 -0.19246586
-0.36059293 -0.4463911 0.05673676 -0.9193494 0.06217872 -1.7235229 0.06852575 0.016685927
0.038806938 0.07685464 -0.033176355 -0.0055414387 0.016485306 -0.21810178 -1.4276302 -0.3194921
-0.13566439 0.045228817 -1.1122462 -0.985915 -0.1521425 -0.0032499938 -0.0052623246 -1.3099482
-0.073659874 -0.26369703 -0.8251825 -0.31693152 0.12858157 0.056781065 0.102068946 0.07456697
0.18818982 0.021933312 -0.045617554 -0.1854761 0.1632017 -0.3009247 0.093921036 -0.021719143
0.8039637 0.30376706 -0.033258636 -0.004304188 1.7484577 0.10767413 0.06805217 0.13303085
0.027488565 0.06025122 -0.06530988 -0.20068653 0.0669979 0.25385126 0.57340413 0.11799578
0.16422382 0.18405417 0.09200298 -0.17311628 0.608771 0.054742 -0.07937297 -0.4411416
0.42544463 0.0033130604 0.51522535 0.5121815 0.27218774 0.16631547 0.2890187 0.3069532
0.32489708 0.37864828 0.49798244 0.6267889 0.12602293 0.18530512 0.0050999518 0.5778296
0.023072906 0.0040696575 -0.025673497 0.22512685 -0.7267594 -0.015201665 0.33352497 0.06487054
-1.2779963 -0.90730906 -0.054385483 -0.041422613 -0.7990147 0.039070643 -0.04523055 -0.017991628

fc3.bias f4 [12]
00000000: 132a 223f 332c 583f 0173 d3bd 7793 0cbe
00000010: d9e6 67be a868 173f e7fe 3a3f f345 1f3f
00000020: 760d 37be f87f 10be 8029 f5be b20d e73e
0.6334545 0.8444244 -0.1032467 -0.13728128 -0.22646655 0.5914407 0.730452 0.6221611
-0.17876229 -0.14111316 -0.47883224 0.45127636

fc4.weight f4 [10, 12]
00000000: 7379 433e a5d1 6c3e e2de a4bd 7b98 04bf
00000010: d80d a9bd 6ef5 8a3e fa3f 0d3f f232 a9bd
00000020: 6048 62be d0b6 90be cf88 25bd fa80 e93d
00000030: 8b8a a53e 1c34 df3e 3a1b cbbe 5ee3 dfbe
00000040: f5b9 e1be 9cb5 253e a188 52be 6184 a23e
00000050: 0bb6 f0bd b9d0 39bf 6b0d 6fbe a3d1 583d
00000060: b270 c6bd a54b 8b3e 9de6 9c3d 8122 eebb
00000070: c9cf b93d 81c4 f93d 860e bcbc fa2d d8be
00000080: 1592 1a3d 4d77 4b3d 0e62 07bf e595 cc3d
00000090: f23d 403f 98dc 823d 5129 6f3e 01a0 8b3e
000000a0: f057 a33e 6108 10bf 40ee 363f d205 4fbf
000000b0: 7a2b 283e c72c 803e 1779 6a3e c16d 823d
000000c0: ba23 15bf d2b3 9e3e bfa4 483e 2d06 d73e
000000d0: 5d12 873e 6e97 0abe 3322 4dbf 948e c3be
000000e0: 1be6 833e b010 b63e f9ab 7c3e cd50 603d
000000f0: bc6f 4cbe a93b 343e f4aa 26bd cb43 6dbe
00000100: 1ef2 03bd 753a f1bd c53c 22bf d5a2 ae3e
00000110: ead5 0cbd d639 75be 027d 6dbc 9c4d 9e3d
00000120: fc5a 663e c6f9 16bc c96c 79be 7ee3 30be
00000130: bfba 8abd 790a 50be 1118 523d c211 63be
00000140: 22ec ad3d 49c4 1ebe 1cd5 89be 05e4 02bc
00000150: 5477 13bf 4a7f 843d 34bd 843e 2203 62be
00000160: 2947 b13e d3b7 0e3f 5a23 57bf f089 33be
00000170: db80 b33c daa8 693e c30c 7f3e d548 d63e
00000180: a60e 343e 5368 0c3e 09d6 523e eaaf c73d
00000190: 6262 8e3e a1b6 c9be 0ed8 973d 5e97 5b3f
000001a0: 863d 3a3e 0a27 833e 8556 203e 4b5a b2be
000001b0: 1cd0 513f 3aee abbe 33eb 413e bea0 963e
000001c0: a717 7f3e 9aac 433d 50a6 503f 0eef 093f
000001d0: 1f12 753e bf21 943e 65d3 f93d a2a2 97be
0.19089298 0.23126848 -0.08050324 -0.51795167 -0.082545936 0.27140373 0.55175745 -0.0826167
-0.22097921 -0.28264475 -0.040413674 0.114015535 0.32332262 0.43594444 -0.3966921 -0.43728155
-0.44087186 0.1618256 -0.20559932 0.31741622 -0.11753472 -0.7258411 -0.23344962 0.0529343
-0.09689464 0.2720615 0.076611735 -0.007267297 0.09072835 0.12195683 -0.022956144 -0.42222577
0.03773697 0.04967432 -0.52883995 0.099895276 0.7509452 0.06389731 0.23355605 0.2727051
0.31903028 -0.56262785 0.7145729 -0.80868256 0.16422835 0.25034162 0.22897755 0.0636859
-0.5825764 0.30996567 0.19594096 0.419969 0.26381198 -0.13534328 -0.8013031 -0.38194716
0.25761494 0.35559607 0.24674977 0.054764558 -0.19964498 0.17600884 -0.040690377 -0.23170392
-0.032213323 -0.11778728 -0.63373977 0.34108606 -0.03438369 -0.23947844 -0.014495136 0.077296466
0.22495645 -0.009214824 -0.24357904 -0.17274281 -0.067739 -0.20316495 0.051292483 -0.22174743
0.084923044 -0.15504564 -0.26920402 -0.007988934 -0.57603955 0.06469591 0.259256 -0.22071508
0.34624603 0.55749243 -0.8403832 -0.17533088 0.021912029 0.22818318 0.24907212 0.4185244
0.17583713 0.13711672 0.2058946 0.0975035 0.27809435 -0.39397147 0.07414256 0.85777843
0.18187532 0.25615722 0.15658005 -0.34834513 0.81958175 -0.3358019 0.18937378 0.29419512
0.24911366 0.047772028 0.8150377 0.53880394 0.23932694 0.28931996 0.121985234 -0.29616266

fc4.bias f4 [10]
00000000: 9715 3a3f 5446 213f 66a0 9c3d 5a84 603f
00000010: f354 fe3e 989b 0340 143e 3ebe 4be7 d3be
00000020: 2367 603e bd6d 293f
0.72689193 0.6299794 0.07647781 0.8770195 0.49674186 2.0563717 -0.18578368 -0.413874
0.21914344 0.6618307

out.weight f4 [46, 10]
00000000: 067d 87be 9cae 10be cba6 73be 55d3 00bf
00000010: 505d f4be f998 89c0 ddc7 4a3e 784d c4be
00000020: 295f e0be d26e 18bf a0fe 643e b612 f4be
00000030: 10e0 863e bac2 33be 5c42 07be 9516 84c0
00000040: 5c03 cd3d 7b48 24be f861 08bf f893 dfbe
00000050: 569e 2bbe 068b 8dbd 6127 93bd 5168 0bbf
00000060: 1113 2dbe 4d5e 7fc0 9686 503d 294a 19be
00000070: 39f9 23bd 6a7e 17bf 5fb4 dbbe ee7d b1be
00000080: a9a3 1cbe d3b4 a3be c60b 5abe 42c5 85c0
00000090: d46e e2bd 226c dfbe 1386 2abf f000 2cbf
000000a0: 80c8 7dbe 3881 d93d 67b9 c33d f4a1 18bf
000000b0: cca8 c03c 3b59 86c0 1fe0 a8be 80c7 0bbf
000000c0: 316a 2d3d 7bf0 39bf 5bce 0c3e 09f8 b6bd
000000d0: 5bca 7d3e ba7f d5be 8104 d9be 4884 75c0
000000e0: b707 6b3e 608a fb3d e20f bcbe 12e6 60bf
000000f0: c9ee b1be 0260 313e 7148 92bc 64e3 96be
00000100: 173c b0be 60f4 79c0 2584 873e 7cb7 f4bd
00000110: a173 c5bd 3fc6 2cbf 1db2 a4be 13da d73d
00000120: 1a94 383e 881d 12bf 0c6a a53c b88d 8cc0
00000130: 6973 72be f82b e8bd 0720 eebe 3808 16bf
00000140: 55e4 23be c05c b0be 22ea 883d d130 02be
00000150: de22 16bf 4a86 8bc0 da3b 70be b83f afbd
00000160: 2783 2fbe a229 35bf 44b2 f83d 7914 6d3e
00000170: 38fc 3c3d a991 41bf 9664 bebc b5bb 65c0
00000180: b628 173e c167 94bc 4f1b 333e 6384 58bf
00000190: 2652 d8be 3679 8cbe 53c1 5c3e 166e c6be
000001a0: 7fad 12bf fbbf 86c0 9c08 0a3e 1a9d b8be
000001b0: 7afe c1be f7f2 e2be 0b5e 603e 555b 03be
000001c0: bbed 373e b78f 14bf f8c8 2abf 50b9 77c0
000001d0: f626 723e 8343 793e c674 9cbe 2f28 e9be
000001e0: b337 83be abba 013c 0d1b 233d 1eac 09bf
000001f0: 2047 bfbe 1de6 84c0 5c3c 0ebe b959 39bc
00000200: 6ab1 81be 4031 18bf 8e6c 8fbe fd18 8dbe
00000210: 6a5e a1be 4b4e 1cbf 758d 19bf 1d5a 8ac0
00000220: 61ab b9be 99cc c9be c5ea e9be b6ee f1be
00000230: 1117 343d 65f9 b2bd b0ef bfbe 5444 e2bd
00000240: c1ce abbc a931 8cc0 a418 ed3d 012d f2be
00000250: bfe5 03bf 8d76 10bf 17c2 e6be 85b6 a8bd
00000260: 190e c4be 82a7 acbe 4a83 3fbe 8159 84c0
00000270: 785d b2be 0762 a3bd 1f99 31bf 5699 0ebf
00000280: 2f50 52be a9fd a43d 75e5 b13d 692c 31bf
00000290: b5be d63c 1c84 8ec0 6e60 433d e489 ecbe
000002a0: 124f 17bf 483c 93be 0e3a 5fbe 6fce 253b
000002b0: a998 13be f364 05bf a381 86be 863d 87c0
000002c0: b38d 253d 421e 003e 95a1 3abe 21e3 33bf
000002d0: 6ee6 64be 5597 97be 3d96 5ebe 1fe9 19bf
000002e0: 2bb4 e7be de3c 8bc0 e271 80be ce3f e0be
000002f0: 496a d4bd 0934 30bf 0879 f73e e802 65be
00000300: 5cc6 80bf 71b7 063e 29ff 80be c51a 37bf
00000310: 36d7 533e 8aa7 36bf eaca 503d b642 a93d
00000320: fcd2 a43e d7bb 893f 1a1e 02bf e85c 2c3e
00000330: 54a8 213c 22b0 43bf 8d78 d8be c952 8cbf
00000340: a6cb 2fbd 5302 9d3e 853c 11be 1e36 2abe
00000350: 496b 08bf c826 66bd 8342 993d 9b88 3abf
00000360: 27a7 213e 5bf2 8cbe c25a 113e 5a47 a43e
00000370: 83fd 543e a9ad d33d e33b 92be 593e 233d
00000380: c172 153d cd0f e6be 7661 09be 96c2 34be
00000390: 78e4 b73e d88a 3e3e 772f 68be 55c1 0d3f
000003a0: 059d 74be db6f 683e 0858 f8bd cc4d 73be
000003b0: 7a4b 1fbe 1ae9 b6bd 9e04 823e 421d 623e
000003c0: 0bbd 62be 04e2 273f 7f7f 4cbc 7f8f 4f3e
000003d0: 58fd 28bd 0c44 4e3e 9b0e a0bd 0953 933d
000003e0: 9a82 36bd 35d5 c93e d242 9e3d 9af1 cf3d
000003f0: 2d94 083d 8c99 7b3e 76c1 43bd 6f8f 103e
-0.26462573 -0.14129108 -0.23794095 -0.5032247 -0.47727442 -4.2999234 0.19802804 -0.38340354
-0.438226 -0.595441 0.22362757 -0.47670525 0.2634282 -0.17554751 -0.13208908 -4.1277566
0.100104064 -0.16043274 -0.5327449 -0.4366758 -0.16759619 -0.06911282 -0.07185245 -0.5445605
-0.16901805 -3.9901307 0.0509096 -0.14969696 -0.0400326 -0.5917727 -0.4291105 -0.3466639
-0.15296806 -0.31973895 -0.21293554 -4.1803293 -0.11056295 -0.43637186 -0.6661083 -0.6718893
-0.24783516 0.1062035 0.09556847 -0.5962212 0.023517989 -4.1983924 -0.3298349 -0.5460129
0.0423376 -0.7263257 0.13750593 -0.08934028 0.24784224 -0.4169901 -0.4238625 -3.8361988
0.22952162 0.12282252 -0.36730868 -0.8785106 -0.3475249 0.1732178 -0.017856808 -0.2947036
-0.34420845 -3.9055405 0.26468006 -0.11949059 -0.09641195 -0.6749 -0.3216714 0.10539641
0.18025246 -0.5707631 0.020192169 -4.3922997 -0.23676838 -0.113365114 -0.4650881 -0.5860629
-0.1600507 -0.34445763 0.06685282 -0.12713934 -0.58646953 -4.3601427 -0.23460332 -0.08557075
-0.17139874 -0.7076665 0.121433765 0.23152341 0.046138972 -0.75612885 -0.023241322 -3.5895817
0.14761624 -0.01811588 0.17490886 -0.84577006 -0.42250174 -0.27436227 0.21558122 -0.38755864
-0.57295984 -4.210935 0.13479847 -0.3605736 -0.37889463 -0.44325992 0.21910875 -0.12827809
0.1796178 -0.5803179 -0.66712904 -3.8706856 0.23647675 0.2434216 -0.3055784 -0.4553847
-0.25628433 0.00791804 0.03982072 -0.53778255 -0.37358952 -4.15309 -0.13890213 -0.011312895
-0.2533067 -0.5945015 -0.28012508 -0.27558127 -0.31517345 -0.61056966 -0.5998147 -4.3235
-0.36263564 -0.39413908 -0.45686927 -0.47252434 0.04396731 -0.087389745 -0.37487555 -0.11048189
-0.020972611 -4.381062 0.115769655 -0.4729996 -0.5152244 -0.56430894 -0.45069954 -0.08237938
-0.38292006 -0.33721548 -0.18702427 -4.135926 -0.34836936 -0.079776816 -0.6937427 -0.5570272
-0.205384 0.08056194 0.086863436 -0.6920839 0.026213983 -4.4536266 0.047699384 -0.46198952
-0.59105027 -0.28756928 -0.2179949 0.0025300046 -0.14413704 -0.5210716 -0.2627078 -4.22626
0.040418338 0.12511542 -0.18225701 -0.70268446 -0.22353527 -0.29607645 -0.21736999 -0.6012134
-0.45254645 -4.35118 -0.25086886 -0.4379868 -0.10371835 -0.688294 0.48334527 -0.2236439
-1.0060534 0.13155915 -0.25194672 -0.7152522 0.20687565 -0.71349394 0.050974764 0.08264677
0.32192218 1.0760449 -0.5082718 0.16832316 0.009866793 -0.7644063 -0.42279473 -1.0962764
-0.042918824 0.30665836 -0.14183243 -0.16622207 -0.53288704 -0.05618933 0.07483389 -0.72864693
0.1578642 -0.27528653 0.14194778 0.32085687 0.20799832 0.103358574 -0.28561315 0.03985438
0.03648639 -0.4493393 -0.13416085 -0.17652354 0.35916495 0.18607652 -0.22674356 0.55373126
-0.23888023 0.2269892 -0.12126166 -0.23760146 -0.15556136 -0.08931179 0.25394148 0.22081473
-0.22142427 0.6557925 -0.012481569 0.20269583 -0.041257232 0.20143145 -0.07815286 0.07193572
-0.044558145 0.39420477 0.07727589 0.10153504 0.033344436 0.24570292 -0.04779192 0.14117216

out.bias f4 [46]
00000000: c991 06be 934e a9bd 6df8 a1bd 6b51 b13d
00000010: c350 bdbe fdc1 073e 24aa e6bd ce3d 63be
00000020: 6623 8abd cf1c cebe 915f de3d 5687 30be
00000030: 128a 5cbe b5c4 3ebe 2c35 8ebe c064 f1bd
00000040: dcb7 e8be 0129 c0bd 9086 fcbd b94f fe3c
00000050: d4f3 dcbe 22ba 963f 4b1a 743f 916d 783f
00000060: 84a1 b33e 4a00 323f d86f b83e 5817 ae3e
00000070: 4cba c13d 41a6 3a3f 9327 653e bf85 babe
00000080: 8995 283e 05a6 3d3e a43a ef3c f3dd 0fbe
00000090: 0796 b9bf 94ff 68bf 84c0 28be 228a 52bf
000000a0: 8481 7a3e 5840 ce3d 4e92 d7be aeea 2cbf
000000b0: f781 a5be e590 7bbe
-0.1314155 -0.0826694 -0.079087116 0.08658107 -0.3697568 0.13257594 -0.112629205 -0.22191545
-0.06745033 -0.40256354 0.108580716 -0.17239127 -0.21537045 -0.18629725 -0.27774942 -0.11786795
-0.45452774 -0.09382821 -0.12330353 0.031043874 -0.43154776 1.1775553 0.9535262 0.97042185
0.35084164 0.6953169 0.3602283 0.34002185 0.094593614 0.72909933 0.22378378 -0.36430165
0.16463293 0.18520363 0.029202767 -0.1404951 -1.449891 -0.9101498 -0.16479689 -0.82242024
0.24463469 0.10070866 -0.4210381 -0.6754559 -0.32325718 -0.24566992
